…
ork as an example, let’s first examine the structure of the model:\n\n\n\n\n\n\nCode snippet to load a pre-trained ResNet-50 model\n\n\n\n\n\nimport torch\nimport torchvision.models as models\n\n# Load the pre-trained ResNet-50 model\nmodel = models.resnet50(pretrained=True)\n\n# Print the model architecture\nprint(model)\n\n\n\nThe output of the code snippet above provides the architecture of the ResNet-50 model, which includes a series of convolutional and batch normalization layers, typically used for feature extraction:\n\n\n\n\n\n\nOutput: ResNet-50 architecture\n\n\n\n\n\nResNet(\n(conv1): Conv2d(3, 64, kernel_size=(7, 7), stride=(2, 2), padding=(3, 3), bias=False)\n(bn1): BatchNorm2d(64, eps=1e-05, momentum=0.1, affine=True, track_running_stats=True)\n(relu): ReLU(inplace=True)\n(maxpool): MaxPool2d(kernel_size=3, stride=2, padding=1, dilation=1, ceil_mode=False)\n(layer1): Sequential(\n(0): BasicBlock(\n(conv1): Conv2d(64, 64, kernel_size=(3, 3), stride=(1, 1), padding=(1, 1), bias=False)\n(bn1): BatchNorm2d(64, eps=1e-05, momentum=0.1, affine=True, track_running_stats=True)\n(relu): ReLU(inplace=True)\n(conv2): Conv2d(64, 64, kernel_size=(3, 3), stride=(1, 1), padding=(1, 1), bias=False)\n(bn2): BatchNorm2d(64, eps=1e-05, momentum=0.1, affine=True, track_running_stats=True)\n)\n(1): BasicBlock(\n(conv1): Conv2d(64, 64, kernel_size=(3, 3), stride=(1, 1), padding=(1, 1), bias=False)\n(bn1): BatchNorm2d(64, eps=1e-05, momentum=0.1, affine=True, track_running_stats=True)\n(relu): ReLU(inplace=True)\n(conv2): Conv2d(64, 64, kernel_size=(3, 3), stride=(1, 1), padding=(1, 1), bias=False)\n(bn2): BatchNorm2d(64, eps=1e-05, momentum=0.1, affine=True, track_running_stats=True)\n)\n)\n(layer2): Sequential(\n(0): BasicBlock(\n(conv1): Conv2d(64, 128, kernel_size=(3, 3), stride=(2, 2), padding=(1, 1), bias=False)\n(bn1): BatchNorm2d(128, eps=1e-05, momentum=0.1, affine=True, track_running_stats=True)\n(relu): ReLU(inplace=True)\n(conv2): Conv2d(128, 128, kernel_size=(3, 3), stride=(1, 1), padding=(1, 1), bias=False)\n(bn2): BatchNorm2d(128, eps=1e-05, momentum=0.1, affine=True, track_running_stats=True)\n(downsample): Sequential(\n(0): Conv2d(64, 128, kernel_size=(1, 1), stride=(2, 2), bias=False)\n(1): BatchNorm2d(128, eps=1e-05, momentum=0.1, affine=True, track_running_stats=True)\n)\n)\n(1): BasicBlock(\n(conv1): Conv2d(128, 128, kernel_size=(3, 3), stride=(1, 1), padding=(1, 1), bias=False)\n(bn1): BatchNorm2d(128, eps=1e-05, momentum=0.1, affine=True, track_running_stats=True)\n(relu): ReLU(inplace=True)\n(conv2): Conv2d(128, 128, kernel_size=(3, 3), stride=(1, 1), padding=(1, 1), bias=False)\n(bn2): BatchNorm2d(128, eps=1e-05, momentum=0.1, affine=True, track_running_stats=True)\n)\n(layer3): Sequential(\n(0): BasicBlock(\n(conv1): Conv2d(128, 256, kernel_size=(3, 3), stride=(2, 2), padding=(1, 1), bias=False)\n(bn1): BatchNorm2d(256, eps=1e-05, momentum=0.1, affine=True, track_running_stats=True)\n(relu): ReLU(inplace=True)\n(conv2): Conv2d(256, 256, kernel_size=(3, 3), stride=(1, 1), padding=(1, 1), bias=False)\n(bn2): BatchNorm2d(256, eps=1e-05, momentum=0.1, affine=True, track_running_stats=True)\n(downsample): Sequential(\n(0): Conv2d(128, 256, kernel_size=(1, 1), stride=(2, 2), bias=False)\n(1): BatchNorm2d(256, eps=1e-05, momentum=0.1, affine=True, track_running_stats=True)\n)\n)\n(1): BasicBlock(\n(conv1): Conv2d(256, 256, kernel_size=(3, 3), stride=(1, 1), padding=(1, 1), bias=False)\n(bn1): BatchNorm2d(256, eps=1e-05, momentum=0.1, affine=True, track_running_stats=True)\n(relu): ReLU(inplace=True)\n(conv2): Conv2d(256, 256, kernel_size=(3, 3), stride=(1, 1), padding=(1, 1), bias=False)\n(bn2): BatchNorm2d(256, eps=1e-05, momentum=0.1, affine=True, track_running_stats=True)\n)\n)\n(layer4): Sequential(\n(0): BasicBlock(\n(conv1): Conv2d(256, 512, kernel_size=(3, 3), stride=(2, 2), padding=(1, 1), bias=False)\n(bn1): BatchNorm2d(512, eps=1e-05, momentum=0.1, affine=True, track_running_stats=True)\n(relu): ReLU(inplace=True)\n(conv2): Conv2d(512, 512, kernel_size=(3, 3), stride=(1, 1), padding=(1, 1), bias=False)\n(bn2): BatchNorm2d(512, eps=1e-05, momentum=0.1, affine=True, track_running_stats=True)\n(downsample): Sequential(\n(0): Conv2d(256, 512, kernel_size=(1, 1), stride=(2, 2), bias=False)\n(1): BatchNorm2d(512, eps=1e-05, momentum=0.1, affine=True, track_running_stats=True)\n)\n)\n(1): BasicBlock(\n(conv1): Conv2d(512, 512, kernel_size=(3, 3), stride=(1, 1), padding=(1, 1), bias=False)\n(bn1): BatchNorm2d(512, eps=1e-05, momentum=0.1, affine=True, track_running_stats=True)\n(relu): ReLU(inplace=True)\n(conv2): Conv2d(512, 512, kernel_size=(3, 3), stride=(1, 1), padding=(1, 1), bias=False)\n(bn2): BatchNorm2d(512, eps=1e-05, momentum=0.1, affine=True, track_running_stats=True)\n)\n)\n(avgpool): AdaptiveAvgPool2d(output_size=(1, 1))\n(fc): Linear(in_features=512, out_features=1000, bias=True)\n)\n)\n\n\n\nThe output above is a liitle verbose, so let’s summarize the key components of the ResNet-50 model:\n\n\n\n\n\n\nSummary: ResNet-50 architecture\n\n\n\n\n\nResNet(\n(conv1): Conv2d(3, 64, kernel_size=(7, 7), stride=(2, 2), padding=(3, 3), bias=False)\n(bn1): BatchNorm2d(64, eps=1e-05, momentum=0.1, affine=True, track_running_stats=True)\n(relu): ReLU(inplace=True)\n(maxpool): MaxPool2d(kernel_size=3, stride=2, padding=1, dilation=1, ceil_mode=False)\n(layer1): Sequential()\n(layer2): Sequential()\n(layer3): Sequential()\n(layer4): Sequential()\n(avgpool): AdaptiveAvgPool2d(output_size=(1, 1))\n(fc): Linear(in_features=512, out_features=1000, bias=True)\n)\nwhere layerx represents the convolutional blocks in the network.\n\n\n\nModifying the ResNet-50 model to perform classification\nTo modify the ResNet-50 model to perform classification, we first need to define the task. For this example, we will classify images into 10 classes, e.g., 10 different types of food. So, for the data, we have\n\ninput: 
…
